…
: 02_transfer_learning_even_odd]: 
********************
[2022-05-19 17:52:38,500: INFO: 02_transfer_learning_even_odd]: >>>>> stage transfer learning started <<<<<
[2022-05-19 17:52:38,503: INFO: common]: yaml file: configs/config.yaml loaded successfully
[2022-05-19 17:52:39,556: INFO: 02_transfer_learning_even_odd]: transferlearning model summary: 
Model: "sequential"
_________________________________________________________________
 Layer (type)                Output Shape              Param #   
=================================================================
 inputlayer1 (Flatten)       (None, 784)               0         
                                                                 
 hiddenlayer2 (Dense)        (None, 300)               235500    
                                                                 
 leaky_re_lu (LeakyReLU)     (None, 300)               0         
                                                                 
 hiddenlayer3 (Dense)        (None, 100)               30100     
                                                                 
 leaky_re_lu_1 (LeakyReLU)   (None, 100)               0         
                                                                 
 outputlayer (Dense)         (None, 10)                1010      
                                                                 
=================================================================
Total params: 266,610
Trainable params: 266,610
Non-trainable params: 0
_________________________________________________________________

[2022-05-19 17:52:39,596: INFO: 02_transfer_learning_even_odd]: transferlearning model summary: 
Model: "sequential"
_________________________________________________________________
 Layer (type)                Output Shape              Param #   
=================================================================
 inputlayer1 (Flatten)       (None, 784)               0         
                                                                 
 hiddenlayer2 (Dense)        (None, 300)               235500    
                                                                 
 leaky_re_lu (LeakyReLU)     (None, 300)               0         
                                                                 
 hiddenlayer3 (Dense)        (None, 100)               30100     
                                                                 
 leaky_re_lu_1 (LeakyReLU)   (None, 100)               0         
                                                                 
 outputlayer (Dense)         (None, 2)                 202       
                                                                 
=================================================================
Total params: 265,802
Trainable params: 202
Non-trainable params: 265,600
_________________________________________________________________

[2022-05-19 17:54:15,646: INFO: common]: created directory at: artifacts\models
[2022-05-19 17:54:15,690: INFO: 02_transfer_learning_even_odd]: base model is saved at artifacts\models\even_odd_model.h5
…
